saved/saved_model.pkl (torch, 7920 bytes, 5 tensors)

l1.weight f4 [32, 6]
0	0x3e3bb144	0.1832934
1	0xbea9f30c	-0.33193243
2	0x3ec6254e	0.38700336
3	0xbe4f99a5	-0.20273454
4	0xbe48fa6e	-0.19626781
5	0xbe24a695	-0.16079171
6	0x3ee63b83	0.4496728
7	0x3ef3f548	0.47648072
8	0x3da6e1d2	0.081485406
9	0xbe49e418	-0.19715917
10	0xbd5ee345	-0.05441596
11	0xbe4d73e0	-0.20063734
12	0x3dd9d13c	0.106356114
13	0x3ea4615c	0.3210553
14	0x3e859130	0.26087332
15	0xbec423b8	-0.383085
16	0x3e44cb02	0.19218066
17	0xbe4c9445	-0.19978435
18	0x3ea84214	0.32862914
19	0x3ce06b0b	0.027394792
20	0xbe7bd4a7	-0.24592839
21	0xbea637df	-0.324645
22	0xbd1cace4	-0.03825082
23	0x3e83115a	0.25599176
24	0x3e117894	0.14206153
25	0x3e2779eb	0.16355102
26	0x3d940d52	0.07229103
27	0x3eb1e11c	0.34742057
28	0x3ee111be	0.4395885
29	0x3edf578f	0.4362149
30	0xbe183533	-0.14864044
31	0xbd35df32	-0.04440231
32	0xbea1424c	-0.31495893
33	0x3e37fdb1	0.1796787
34	0x3e2ba953	0.16763811
35	0x3dfe668e	0.124219045
36	0x3da3d19f	0.079989664
37	0x3eaf9cc7	0.342993
38	0xbed74268	-0.4204285
39	0x3ebf6115	0.37378755
40	0xbe2c7116	-0.16840014
41	0xbcb57af7	-0.02215336
42	0x3ddb59f1	0.10710514
43	0xbe8a5058	-0.27014422
44	0xbda63314	-0.08115211
45	0xbe35731b	-0.1771969
46	0x3e43de24	0.19127709
47	0x3e6f8062	0.23388818
48	0xbe4c1c7e	-0.19932744
49	0x3ecf9350	0.40542078
50	0x3eb57c4e	0.354464
51	0x3eb59866	0.35467833
52	0xbe957caa	-0.29196674
53	0x3e89fd97	0.26951286
54	0x3e50a2a1	0.20374538
55	0x3c936eeb	0.017997226
56	0x3e91840b	0.28421053
57	0x3e30d585	0.17268951
58	0x3ce43042	0.027855042
59	0x3dff5569	0.124674626
60	0xbe9409e1	-0.28913787
61	0x3ed78d06	0.4209978
62	0xbe99bda0	-0.30027485
63	0x3dbd06da	0.092298225
64	0x3eb41879	0.3517492
65	0x3ede4edc	0.4341954
66	0xbe130ccb	-0.14360349
67	0x3eae37a8	0.34026837
68	0x3e60457e	0.21901509
69	0x3d2a5509	0.041585002
70	0x3e0e76e6	0.13912544
71	0x3e2f26ee	0.17104694
72	0x3e4b8680	0.19875526
73	0xbe241858	-0.16024911
74	0x3e6cd2bc	0.23127264
75	0xbe781088	-0.24225056
76	0xbea39824	-0.31952012
77	0x3e31efa2	0.17376569
78	0x3e8e7bf4	0.27828944
79	0x3b422354	0.0029623108
80	0xbeb9fb68	-0.3632462
81	0xbb4c458f	-0.003116939
82	0x3ed695d8	0.41911197
83	0x3d5ac5f1	0.053411428
84	0xbdd30f76	-0.10305683
85	0x3ec8f1ec	0.39247072
86	0x3e8d9e3e	0.27659792
87	0xbe1796af	-0.14803575
88	0xbe91f315	-0.2850577
89	0x3dffc676	0.12489025
90	0xbe7eccdb	-0.24882834
91	0xbd74f212	-0.05980117
92	0xbec256e8	-0.3795693
93	0xbe96079c	-0.2930268
94	0x3e054313	0.13013868
95	0xbe2f9189	-0.17145361
96	0xbe78ff66	-0.24316177
97	0xbeb5e5a0	-0.35526752
98	0xbeae4e90	-0.34044313
99	0xbc98b8c2	-0.018642787
100	0x3e890e4a	0.26768714
101	0x3ebf525b	0.3736752
102	0xbdf4ec39	-0.119591184
103	0x3ee879db	0.45405468
104	0xbe672c20	-0.22575426
105	0x3edf38a7	0.4359791
106	0x3ef84f97	0.48498222
107	0xbe12adb7	-0.1432408
108	0xbdfcfc9f	-0.12352871
109	0x3e86378c	0.26214254
110	0x3ea159d9	0.3151386
111	0x3dae64db	0.085153304
112	0x3e22c47d	0.15895267
113	0xbe0ed553	-0.13948564
114	0x3e013526	0.12617931
115	0x3e84886f	0.2588534
116	0xbe67e19d	-0.22644658
117	0x3eb1dc58	0.3473842
118	0x3e083c0f	0.1330416
119	0x3edddbe5	0.4333183
120	0x3dd289ad	0.10280166
121	0x3eeb79de	0.45991415
122	0x3e9aef65	0.3026077
123	0x3da7e0b9	0.08197159
124	0x3e3f057d	0.18654437
125	0x3e7eaf25	0.248715
126	0x3e84b147	0.25916502
127	0xbe883e72	-0.26610142
128	0x3cfb85f1	0.030703517
129	0x3e966f64	0.2938186
130	0xbdf1cfca	-0.11807211
131	0xbd4fd70d	-0.050742198
132	0x3e0d8758	0.13821161
133	0xbebd09ed	-0.36921635
134	0xbe30e049	-0.17273058
135	0xbe0551cf	-0.13019489
136	0x3e96e535	0.29471746
137	0x3e944bbd	0.28964034
138	0xbe14e562	-0.14540628
139	0x3d4dbbb6	0.050227843
140	0x3eb7e4da	0.35916787
141	0xbe5c7f9a	-0.21533051
142	0xbebc0aa8	-0.3672688
143	0xbab8d44d	-0.0014101357
144	0x3d9d63dd	0.07685063
145	0xbe299d7b	-0.1656398
146	0x3ea76d86	0.32700747
147	0xbea436a8	-0.3207295
148	0xbe66f4c8	-0.22554314
149	0x3e5b8e3b	0.21440975
150	0xbd7aa564	-0.061192885
151	0xbea0d7fb	-0.3141478
152	0x3e07afaa	0.13250604
153	0xbe9e74f5	-0.30948606
154	0xbc9900a5	-0.018677065
155	0xbe112ec6	-0.14177999
156	0x3ed70243	0.41993913
157	0xbe951e6a	-0.29124767
158	0xbe4b438d	-0.19849987
159	0xbe28278f	-0.1642134
160	0xbe505cbe	-0.20347878
161	0x3e1feed0	0.15618443
162	0x3ec8085a	0.39068872
163	0x3e9860d3	0.2976137
164	0x3e8a6410	0.27029467
165	0xbe917baa	-0.2841466
166	0xbd971962	-0.07377888
167	0xbe00a1b1	-0.1256168
168	0x3e75cbfa	0.24003592
169	0x3e6ff28d	0.2343237
170	0x3d34837a	0.0440707
171	0xbed46988	-0.41486764
172	0x3e0b2cdd	0.13591333
173	0xbd958083	-0.07299902
174	0xbe8471d9	-0.2586811
175	0xbe13892a	-0.14407793
176	0xbe9a0327	-0.3008053
177	0x3eacc008	0.33740258
178	0x3e7e1ec2	0.2481642
179	0xbe453c5a	-0.19261304
180	0xbc268966	-0.010164594
181	0x3d02e56d	0.03195708
182	0xbea0ff22	-0.3144465
183	0xbe9db74d	-0.3080391
184	0xbe9e3098	-0.3089645
185	0xbdee2e5d	-0.11629937
186	0xbd4bb3d1	-0.049732033
187	0x3ecb907b	0.39758667
188	0x3edbaf06	0.4290697
189	0x3d7d27a6	0.06180539
190	0x3e100f2f	0.14068292
191	0x3ecace85	0.39610687

l1.bias f4 [32]
0	0x3e4b0bdd	0.19828744
1	0xbd90b4ad	-0.07065711
2	0x3e757624	0.23970848
3	0x3e06b0c5	0.1315337
4	0xbd70c240	-0.058779
5	0x3d9cbace	0.07652818
6	0xbec55537	-0.38541576
7	0x3df546ad	0.11976371
8	0x3e2a44d4	0.16627818
9	0x3e85d478	0.26138663
10	0x3ed1a9c9	0.40949848
11	0x3e97e320	0.2966547
12	0xbecf7b94	-0.4052397
13	0x3e9e7ea9	0.3095601
14	0xbe26e9a2	-0.16300061
15	0x3c7118bc	0.01471537
16	0x3e78f9ae	0.24313995
17	0x3c234b2e	0.009966655
18	0x3cf4a651	0.029864462
19	0x3d89e2f6	0.067327425
20	0xbe2de414	-0.16981536
21	0xbeb67876	-0.3563878
22	0x3bac81f0	0.005264513
23	0x3e3e2f6e	0.1857278
24	0x3de4ec93	0.111779355
25	0x3ede84f3	0.43460807
26	0x3cc3e3fc	0.023912422
27	0x3ef9273f	0.48662755
28	0xbe69cf98	-0.22833097
29	0x3df9724d	0.12180004
30	0x3e8a6483	0.2702981
31	0xbc9fb41f	-0.019495068

l2.weight f4 [32, 32]
0	0xbdcb347f	-0.09922122
1	0xbe0b50ba	-0.13605013
2	0xbc57d701	-0.0131738195
3	0xbd89e0dc	-0.06732342
4	0x3dade6a8	0.0849126
5	0x3e328d56	0.17436728
6	0xbdd4cfea	-0.10391219
7	0xbe1488f7	-0.14505373
8	0xbdaddf33	-0.084898375
9	0xbe150fec	-0.14556855
10	0x3d580ab6	0.05274459
11	0xbd30f38f	-0.043201026
12	0x3e0ca12d	0.13733359
13	0xbdfb2a61	-0.122639425
14	0x3dabd74d	0.08390675
15	0x3e16fd65	0.147451
16	0x3d34b166	0.044114493
17	0xbe00af1e	-0.12566802
18	0xbd9784e8	-0.07398397
19	0x3db1f13e	0.086885914
20	0xbe0c3877	-0.13693415
21	0x3c0ef8bb	0.008726294
22	0x3d427c56	0.047481857
23	0x3df7a1a0	0.120913744
24	0xbab6c6ab	-0.0013944706
25	0xbce10bd5	-0.027471462
26	0xbce11840	-0.027477384
27	0x3d1ad5aa	0.037801422
28	0xbcb5db9a	-0.02219944
29	0x3e1abec9	0.15111841
30	0xbe33e776	-0.17568764
31	0xbe30e935	-0.17276461
32	0xbd1d6ec5	-0.038435716
33	0x3e8055ce	0.25065464
34	0xbdbd7249	-0.09250314
35	0x3dae9fb1	0.085265525
36	0x3decfa1d	0.11571143
37	0x3d83dd44	0.064386874
38	0x3e2adf3d	0.16686721
39	0xbd223f9f	-0.039611455
40	0x3e020781	0.12698175
41	0x3e5cae95	0.21550973
42	0x3e03a0f8	0.12854373
43	0x3d73ecef	0.05955213
44	0xbd1db45f	-0.038502093
45	0x3e29b1de	0.16571757
46	0x3e61731c	0.22016567
47	0xba7b1ebe	-0.0009579471
48	0xbe2633f5	-0.16230758
49	0x3bd64bb3	0.006539786
50	0x3e832780	0.25616074
51	0x3e6aedd1	0.22942282
52	0x3d801c88	0.06255442
53	0x3db4f04f	0.08834898
54	0xbe0112ed	-0.12604876
55	0xbe107ac6	-0.14109334
56	0x3d9f5923	0.07780673
57	0xbc1209eb	-0.008913497
58	0x3d9b75e7	0.075908475
59	0x3d82d9db	0.06389209
60	0xbdb293d8	-0.08719605
61	0x3e001c65	0.12510832
62	0xbe1c75d8	-0.15279329
63	0x3d4e02e4	0.050295725
64	0xbba3a299	-0.0049937484
65	0xbe2fff9e	-0.17187354
66	0x3df888c5	0.12135462
67	0xbd9d19a0	-0.07670903
68	0xbb1a783d	-0.0023570203
69	0xbd423267	-0.04741135
70	0xbd521a25	-0.051294465
71	0xbd218d2c	-0.039441273
72	0xbd11e112	-0.035615034
73	0x3da04f70	0.078276515
74	0xbd318396	-0.04333838
75	0xbdffb701	-0.12486077
76	0xbdc6319e	-0.096774325
77	0xbd924589	-0.07142169
78	0x3d54a246	0.05191257
79	0x3dedc056	0.11608951
80	0xbe32e070	-0.17468429
81	0xbdcb01d1	-0.09912456
82	0x3c240526	0.010010993
83	0x3c6a530d	0.014302027
84	0x3d2bf7b2	0.041984268
85	0x3dc40a79	0.0957231
86	0xbe128dd6	-0.14311919
87	0xbd47d7dc	-0.048789844
88	0x3d92c02a	0.07165559
89	0xbe303c28	-0.17210448
90	0x3d524848	0.051338464
91	0xbd3a783f	-0.04552483
92	0x3d64c580	0.055852413
93	0x3e2bfb89	0.16795172
94	0xbd9ca023	-0.07647731
95	0xbd8bbad7	-0.06822746
96	0x3dcd138f	0.10013496
97	0xbe489cc1	-0.19591047
98	0x3ddace47	0.106838755
99	0xbdbe4faa	-0.092925385
100	0x3e1bebde	0.15226695
101	0xbe0d1bbc	-0.13780111
102	0x3dc9f5e5	0.09861354
103	0xbe2315ad	-0.15926237
104	0x3c03da72	0.008047687
105	0xbe261aaa	-0.16221109
106	0x3d537948	0.051629335
107	0x3d9ac97d	0.07557962
108	0xbdcd7ade	-0.10033201
109	0x3d911a5e	0.07085107
110	0x3dfac6b9	0.122449346
111	0x3dd6276a	0.104567364
112	0x3df527d6	0.11970489
113	0x3d0d30ac	0.034470245
114	0xbdb8a242	-0.09015323
115	0x3a90b626	0.0011040613
116	0x3d7c3da2	0.061582215
117	0xbd5b2848	-0.053505212
118	0x3d23960b	0.039938014
119	0x3d1498aa	0.036278404
120	0xbd56c20f	-0.052431162
121	0xbd2cd571	-0.04219574
122	0x3de8c8db	0.11366435
123	0xbd612997	-0.054971304
124	0xbcb7bf0a	-0.022429962
125	0xbe23bc33	-0.15989761
126	0xbd88bd44	-0.066767246
127	0xbdb88fa6	-0.09011774
128	0x3dad1250	0.084507585
129	0xbda14217	-0.07873934
130	0x3dc66bf5	0.0968856
131	0x3dc2931e	0.095007166
132	0x3c838544	0.016054757
133	0xbd5a30c1	-0.05326915
134	0xbda8e411	-0.08246625
135	0x3d5cb7ea	0.05388633
136	0x3dec3746	0.1153398
137	0xbdd3804d	-0.10327206
138	0xbe361a79	-0.17783536
139	0xbc9292e4	-0.017892309
140	0x3ce0b3fa	0.02742957
141	0xbe3feabc	-0.18741888
142	0x3d9c0beb	0.07619461
143	0x3ce0ab18	0.027425334
144	0xbd3dd83e	-0.046348803
145	0xbdf82dc4	-0.12118104
146	0x3aee7fd7	0.0018196058
147	0x3e0c2306	0.13685235
148	0xbd93deb1	-0.072202094
149	0x3e0b828f	0.13624023
150	0x3e1b6b8d	0.15177746
151	0xbe31a372	-0.17347506
152	0xbe4370ff	-0.19086073
153	0x3e291838	0.16513145
154	0x3e08de68	0.13366091
155	0x3ca47ab2	0.020078037
156	0x3d4b0fdc	0.04957567
157	0xbd31fabe	-0.043452017
158	0x3d8c76ff	0.06858634
159	0xbde7346c	-0.112892956
160	0x3de5dcbf	0.112237446
161	0xbd8c914d	-0.068636514
162	0x3d6d5e93	0.05795152
163	0x3d672466	0.056431197
164	0x3e0225d8	0.12709749
165	0xbda0c25e	-0.078495726
166	0x3db2f929	0.0873893
167	0xbd9c2d32	-0.07625808
168	0xbe24d7cf	-0.1609795
169	0xbe0cbe7e	-0.13744542
170	0x3b721fb5	0.0036945168
171	0x3dab873a	0.08375402
172	0x3e042ec0	0.12908459
173	0x3d5cbaf8	0.053889245
174	0xbdfb90e2	-0.122834936
175	0xbe04c530	-0.12965846
176	0x3ddc2058	0.107483566
177	0x3cc663da	0.024217535
178	0xbd357e14	-0.04430969
179	0xbe42c67d	-0.1902103
180	0xbe1831d3	-0.14862756
181	0x3e055d80	0.13023949
182	0xbd9cc946	-0.07655577
183	0x3dc74116	0.09729211
184	0xbb9a66e9	-0.004711975
185	0x3bc0c49e	0.0058828136
186	0xbe0bc119	-0.1364788
187	0x3d566bec	0.052349016
188	0xbe2248c9	-0.15848078
189	0x3deffdd9	0.117183395
190	0x3dfb839e	0.12280963
191	0x3d6304e7	0.055424597
192	0x3d7e8493	0.06213815
193	0x3c665805	0.014059071
194	0xbd259c77	-0.04043242
195	0x3daada0c	0.083423704
196	0xbe255ce0	-0.1614871
197	0x3bce0444	0.0062871296
198	0xbdb5c94b	-0.08876284
199	0xbdce7499	-0.10080833
200	0xbd7b48f9	-0.06134889
201	0xbdc8bd24	-0.09801701
202	0xbd8e9b84	-0.06963256
203	0xbbea91fb	-0.0071585155
204	0x3dc21977	0.09477513
205	0x3d65bfd1	0.056091134
206	0xbe1fa7b9	-0.15591325
207	0x3e2f2675	0.17104514
208	0xbddcd6a8	-0.1078313
209	0xbd695686	-0.05696728
210	0x3e07008d	0.13183804
211	0x3e15a889	0.14615072
212	0xbd51a118	-0.05117902
213	0x3cc1b369	0.02364512
214	0xbda3632b	-0.07977899
215	0xbe01047a	-0.12599364
216	0x3dc8a773	0.097975634
217	0xbcacb977	-0.02108453
218	0xbe2bbac7	-0.16770469
219	0xbd6b58b3	-0.057457637
220	0xbdc8a9c5	-0.09798006
221	0xbe1e782e	-0.15475532
222	0x3d75ae02	0.0599804
223	0xbd86cd7c	-0.06582162
224	0x3a36af6c	0.0006968889
225	0x3e81533c	0.25258815
226	0x3ccb37bf	0.024806855
227	0xbdccf138	-0.10006946
228	0xbd91e498	-0.07123679
229	0xbddce07f	-0.10785007
230	0x3e168528	0.14699233
231	0xbde489d3	-0.111591004
232	0x3e65d6c3	0.22445206
233	0x3db93d9e	0.09044956
234	0x3e2407d4	0.16018611
235	0xbd44de7a	-0.048063733
236	0xbd1eacc4	-0.03873898
237	0x3e71d69e	0.23617026
238	0x3e49e6ef	0.19717
239	0xbe3845e2	-0.17995408
240	0xbe742ec1	-0.2384596
241	0x3da0f722	0.07859637
242	0x3e6d148d	0.23152371
243	0x3bd52404	0.0065045375
244	0x3e587f2b	0.2114226
245	0x3e346c57	0.17619453
246	0x3ddf1d59	0.108942695
247	0xbc87e556	-0.016588848
248	0xbe3cda13	-0.18442564
249	0xbe557bb5	-0.20847972
250	0xbdd740f9	-0.105104394
251	0x3e0a8dc7	0.13530646
252	0x3e42a3b2	0.19007757
253	0xbe1d6a82	-0.15372661
254	0xbe719a1a	-0.23593941
255	0x3e8cd4ab	0.27506003

l2.bias f4 [32]
0	0xbc4a3240	-0.012341082
1	0x3e6ce020	0.23132372
2	0x3d83d435	0.0643696
3	0xbe2d472f	-0.16921686
4	0x3cab4889	0.02090861
5	0x3d2209c2	0.039560087
6	0x3d057065	0.03257789
7	0x3e45ce92	0.19317082
8	0x3d3f314b	0.04667787
9	0x3dfbc23d	0.122929074
10	0xbe0c1710	-0.13680673
11	0xbe1cbf8c	-0.15307444
12	0x3d529544	0.051411882
13	0x3d107e18	0.035276502
14	0x3e323744	0.17403895
15	0xbcc5f329	-0.0241638
16	0x3e6e6ac0	0.2328291
17	0xbdf6d65a	-0.12052603
18	0x3e775d42	0.24156669
19	0xbe164cfe	-0.14677808
20	0xbdc747c6	-0.097304866
21	0xbe0572f5	-0.13032134
22	0x3e1da8c0	0.15396404
23	0x3e0eb344	0.13935572
24	0x3e0611ab	0.13092677
25	0x3d14f13f	0.036362883
26	0xbd1eba5b	-0.03875194
27	0x3de4400c	0.111450285
28	0x3e52c620	0.20583391
29	0x3e0edb1b	0.1395077
30	0x3e045028	0.12921202
31	0x3d76f3eb	0.060291212

l3.weight f4 [1, 32]
0	0xbe0efee7	-0.13964425
1	0xbe02cf43	-0.12774377
2	0x3cdf9829	0.027294235
3	0x3e202805	0.15640266
4	0xbd0af4cf	-0.033924874
5	0x3e2119f5	0.15732558
6	0xbd921eec	-0.07134804
7	0xbdc41e3a	-0.09576078
8	0xbe7dfba4	-0.24803025
9	0x3d9fee90	0.07809174
10	0x3e0d40fe	0.13794324
11	0xbd52feac	-0.051512405
12	0x3d488911	0.04895884
13	0x3e0c44f6	0.13698182
14	0xbe82d216	-0.25550908
15	0x3dd32872	0.10310449
16	0xbe8633b5	-0.26211324
17	0x3dffa2cc	0.12482223
18	0xbe1a8f8e	-0.15093824
19	0x3e0e46fd	0.13894267
20	0xbe34f1df	-0.17670391
21	0xbe095a22	-0.13413289
22	0x3e5406ff	0.20705794
23	0x3d3aa95b	0.045571666
24	0xbe07b192	-0.13251331
25	0x3e04509b	0.12921374
26	0xbe06b815	-0.13156159
27	0x3dcb946f	0.09940421
28	0xbe858cad	-0.2608389
29	0xbe67b304	-0.22626883
30	0xbdc7445f	-0.097298376
31	0xbddde5c8	-0.10834843
